checkpoint.pth (torch, 22566 bytes, 6 tensors)

fc1.weight f4 [64, 8]
00000000: cf48 ed3d 3d3c 653f 2a0d 66bb b04e 77bf
00000010: d687 8dbe e3cc 323f 75d7 703e 5a4e 9d3e
00000020: 0179 223e 6a12 11be 9898 e7bd ef23 c0be
00000030: 63c1 47bd 321d 11bf 9b93 43bd ebc7 1c3f
00000040: 1249 5d3e 44cf 733d 0388 2fbe 3a3a 98bd
00000050: 3a66 1c40 5f3e 39be d0e5 91bd b8b2 74bb
00000060: 98d0 1e3e 0140 9fbe b22e 743f 638b b23e
00000070: 682a 82bf a311 c4be 9a2e 6fbe fc3e 043f
00000080: a035 b3be f7c1 88bf 32f5 0bbf e73c 33bf
00000090: ded9 c23c d0dc 043f 8f7b 473e f563 b03e
000000a0: 5c66 d43e f2af a2be 7694 ec3d 94d6 54be
000000b0: 6e53 6cbf 8d34 d0be d3d2 a73e b69e 943e
000000c0: dbb3 eebe 9af3 b3bd 5884 e33e 8559 5cbe
000000d0: 6032 5dbe df4d 0e3e 1ef9 b93e 402f 06bf
000000e0: 54b9 2fbe 086b 91bf 104a 35be 6899 7cbf
000000f0: 7466 863e 01da 3b3e 339b 0d3e 31d1 3e3e
00000100: 0c2c 1d3c b54d 8d3c 6dc6 fa3d 8727 27bf
00000110: fa79 a13e 8cce 343f 34eb e2be 2865 11bf
00000120: 2f6e a63e e1fc 0c3e 123c 793e 810e 883d
00000130: 2548 d8be b37e 3bbf 22a6 9bbf 37d3 8ebe
00000140: a53f 23bf 75b8 693f 6248 3e3f 5532 8fbf
00000150: 462b 413f b60c 25be 8d2d 7a3d 2e70 51bd
00000160: 40c1 bcbe fe60 83bd fd01 3c3d 67a2 0abd
00000170: 53a3 433f 5cfe c13e b5d0 6ebe 316c 1bbe
00000180: 9e92 913e db9e 003e d97a c8be 2e5b 0cbe
00000190: 8dd9 9f3e 31a0 6b3f f5d5 d73e a31a f6be
000001a0: 0f0f 0abf 9748 49bf 517b 34bd 3ee8 53bf
000001b0: 2881 9e3e 272a de3d c253 d93d 29be 6a3e
000001c0: 4928 73be 7f50 623f fd95 303f 9efd 4bbf
000001d0: 25b8 fe3d a0fe 903d 27dd b93c d2e3 9d3c
000001e0: 31bb fe3e 645d f4be a081 2a3c a07c 61bf
000001f0: 4b2c 8c3f 6e37 2bbd 56dd 173f c3a1 91bd
00000200: 0f52 563e a736 0abf a757 67be 63d4 22bf
00000210: 3e28 98be 14b6 15bf f154 a43e 57d5 ee3d
00000220: 3575 86bd 7ea0 41be 87ba 0abf 78c8 773f
00000230: 8f3b 003e aa28 333f 7e19 3a3f 8d5c 90be
00000240: 3991 08bf 6283 79be bc1f 893f 6719 93be
00000250: 67a2 febf fe50 18bf 48c0 a8be 3494 9fbe
00000260: 802a fcbd 8884 693f ea61 c63e a59e 5fbf
00000270: e308 303f f700 bbbe f4bb be3d 9d08 183d
00000280: 85b1 bc3d b4fb 90bf 1c22 fe3d 9887 4abf
00000290: 2920 3d3e 3aa4 013d e62c 01be baee 8d3e
000002a0: 5fb7 753d 9466 a7bf c7ef 8d3e c486 ffbe
000002b0: cf2d ae3e 8c80 e53d 0c79 8b3c b029 b43e
000002c0: db0a 503e e0a1 8dbf 560b 7e3f 9e15 25bf
000002d0: 73da 03bf e2ba 22be 260b a53e 7c3a 783e
000002e0: 6b9c 213f 9d09 83bd c2d2 bdbe 8c82 cd3e
000002f0: 045c 38bf 8cfe 67be 6689 eb3e 09fc c93e
00000300: 1aac e5be 6178 81bf 5207 0d3e f627 27bf
00000310: 369a a53e a5d2 b7bb c04c e4be aa30 e23b
00000320: fe7f 353d 2b93 bfbe 283b 5bbf c722 10bf
00000330: 9665 85bb 4d65 fb3e a266 943e 9bdd a63e
00000340: c028 333e f4f0 59bf b5fa 4d3f 1ea2 b9be
00000350: 6d06 0bbf 37d3 1abe 19f4 7c3e 2efe 223e
00000360: 3f9d d3bd 9aea 4fbf d5fb fabe e621 d3bd
00000370: 352b 153e 04b9 973e 6e45 9b3e 8501 6d3e
00000380: 2041 42bf 3256 153f 46ee c5bf 4698 a9bd
00000390: 0f64 9d3d 2f39 983e 3f8e 0abd a950 563e
000003a0: cbd0 12be ad54 5c3f 991b 863f 3128 07bf
000003b0: d46a 8c3f db4d a0be ae63 563d cc2b b03e
000003c0: aa95 843e f4a5 4c3e dfc1 c0be 740e 0fbf
000003d0: a37e 08be 1ff4 56bf 77fe ee3e ec04 48be
000003e0: 56cd 233e 541d cb3d 4359 bcbe f4ba 83bc
000003f0: 097a 663f d1f2 a73e 3301 afbe fb77 f33c
0.11586153 0.8954504 -0.0035103061 -0.9660444 -0.27642697 0.6984388 0.2351969 0.3072384
0.15866472 -0.1416718 -0.11308402 -0.37527415 -0.048768412 -0.56685174 -0.04774819 0.6124255
0.21609905 0.059523836 -0.17141728 -0.07432981 2.4437394 -0.18090199 -0.071239114 -0.003733797
0.1550926 -0.3110352 0.9538375 0.3487197 -1.0169191 -0.38294706 -0.23357621 0.51658607
-0.3500185 -1.0684193 -0.54671013 -0.70014805 0.023785528 0.51899433 0.19480728 0.3445126
0.41484344 -0.3177486 0.11551754 -0.2078498 -0.92314804 -0.40665093 0.32778034 0.29027337
-0.46621594 -0.08786698 0.44436908 -0.21518524 -0.21601248 0.13896893 0.36322874 -0.5241585
-0.17160541 -1.1360788 -0.17704034 -0.9867158 0.2625004 0.1834488 0.13828735 0.18634488
0.009593021 0.017248968 0.12244878 -0.6529469 0.31538373 0.70627666 -0.4432007 -0.5679498
0.32505938 0.1376834 0.24339321 0.066433914 -0.42242542 -0.732402 -1.2160075 -0.2789552
-0.6376899 0.91297084 0.743292 -1.1187235 0.75456655 -0.1611813 0.061078597 -0.051132374
-0.36866188 -0.06414984 0.045900334 -0.033846285 0.7642109 0.37889373 -0.23321803 -0.1517799
0.28432173 0.12560599 -0.39156225 -0.13706657 0.31220666 0.9204131 0.42155424 -0.48067197
-0.5392923 -0.7862639 -0.044062916 -0.8277625 0.30957913 0.10847884 0.10611679 0.22924103
-0.23745836 0.8840408 0.68978864 -0.79683864 0.124374665 0.07079816 0.022688461 0.019273672
0.4975219 -0.477275 0.010406882 -0.8808079 1.0951017 -0.04180091 0.59322107 -0.07110932
0.2092974 -0.5398964 -0.2259203 -0.63605326 -0.29718202 -0.58480954 0.32096055 0.11661785
-0.06565324 -0.18908879 -0.5419087 0.96790266 0.1252272 0.69983923 0.7269515 -0.2819561
-0.5334659 -0.24366525 1.071281 -0.28730318 -1.9893311 -0.59498584 -0.329592 -0.31167758
-0.12312794 0.9121785 0.38746578 -0.8735145 0.6876356 -0.36524174 0.09313193 0.03711759
0.09213547 -1.1326814 0.124088496 -0.7911315 0.184693 0.03165076 -0.12614784 0.27721196
0.05998933 -1.3078179 0.27721998 -0.49907506 0.34019324 0.11206159 0.017025493 0.35188055
0.20316641 -1.1065025 0.9923605 -0.6448611 -0.515052 -0.15891603 0.32235068 0.2424106
0.631293 -0.06398318 -0.37074858 0.40138662 -0.72015405 -0.22655696 0.46003264 0.394501
-0.44857866 -1.0114862 0.13772324 -0.6529535 0.32344216 -0.0056098276 -0.44589806 0.006902774
0.044311516 -0.37416968 -0.8563714 -0.56303066 -0.004070948 0.49100724 0.28984553 0.32590947
0.17496014 -0.8513329 0.80460674 -0.36256498 -0.5430668 -0.15119635 0.24702491 0.15917274
-0.10332727 -0.8121735 -0.49020258 -0.103092 0.14567263 0.29633343 0.30326408 0.23145111
-0.7588062 0.5833465 -1.546334 -0.08280997 0.076851 0.29731128 -0.033827063 0.20929207
-0.1433746 0.86066705 1.0477172 -0.527957 1.0970101 -0.313094 0.052341156 0.34408414
0.25895435 0.19985181 -0.37647912 -0.5588143 -0.13329558 -0.8396625 0.46678516 -0.19533128
0.15996298 0.09917703 -0.3678685 -0.016080357 0.9002996 0.32802442 -0.34180602 0.029720297

fc1.bias f4 [64]
00000000: 8969 28be 3c84 a6bd 4374 bebd a4bb 8abe
00000010: cb8b 06bf 4743 323e f95e 933e f41b bdbe
00000020: deac 9d3e 2195 2f3e 84fd 813e efb5 a2be
00000030: 0e70 10bf 8fd7 bebe 0a59 223f 5a5b 053f
00000040: b366 803e e7e2 ddbe 5ac5 6a3e 49e8 253f
00000050: 8e64 d7be 07c3 d3be d7f3 13bf 12c7 c9be
00000060: 80d6 56be b967 03bf 33b2 dabe d241 9dbe
00000070: 5e29 853c 39f6 3dbe 1742 253d f879 eabe
00000080: c8d2 c63c 68f1 303f dce1 91be 3b44 6c3e
00000090: f162 16be c302 823e 97be abbe b2e2 edbe
000000a0: 5977 b53e ba22 a2be 7d00 5d3e bcea 8fbe
000000b0: 44b1 803d 8e92 34be 854a 033f bcca 6f3d
000000c0: 9b0b 013e 2355 2cbe 3c09 f03d f106 843e
000000d0: ccb5 9d3d bc87 d03d 5d2b c1be 325d b63e
000000e0: 2c62 383e 9ae3 0e3f 86e9 df3e 9c0f ba3e
000000f0: a88f 7fbe 38b7 82be 2cbc b2bd ad2f 34bc
-0.16446508 -0.081306905 -0.09299519 -0.27096283 -0.5255706 0.17408477 0.28783396 -0.3693539
0.3079595 0.17146732 0.2538873 -0.3177943 -0.5642098 -0.37273833 0.6341711 0.52092516
0.25078353 -0.43337175 0.22926846 0.64807564 -0.42068905 -0.41359732 -0.57793945 -0.3940969
-0.20980263 -0.51330143 -0.4271408 -0.3071428 0.016255077 -0.18550958 0.04034623 -0.4579618
0.02427043 0.69118357 -0.2849263 0.23072903 -0.1468618 0.25392732 -0.33543846 -0.46462017
0.35442618 -0.3166712 0.21582218 -0.28108776 0.06283811 -0.17634031 0.5128558 0.058542952
0.12602083 -0.16829352 0.11720511 0.25786546 0.077006906 0.10182139 -0.37728396 0.35617977
0.180062 0.5581604 0.43732852 0.36340034 -0.24957144 -0.2553041 -0.08727297 -0.010997695

fc2.weight f4 [64, 64]
00000000: ca68 90be 1034 fabb 275b 3ebf c496 773f
00000010: 7296 c33e f2db 203e f8ba 063f 0b2c 253f
00000020: 4fa8 193f f6b0 bc3e 5599 45bd 8772 9c3e
00000030: 339a 083f 566f 0f3f c931 203c 400f 40bf
00000040: 666b 04bb 2fa4 583f c32c 17bd 7663 7bbb
00000050: 4fa6 543f 0957 243f e3a3 903f d683 063f
00000060: dd91 ad3c 6e30 753d be2f 5d3f f402 3a3e
00000070: 81ee 543e 94fa b1be fae6 b53d 42a1 3d3f
00000080: 801c 42bf b37c 4e3e f406 f23e 0ea6 683e
00000090: 3ef3 633f f846 b43e 309d 353d 8f1a 9e3f
000000a0: c917 893e dace 293e 2d30 c23e 44c6 08bf
000000b0: 9d09 0c3f c6ef 5b3e f2e5 8fbe 2000 323e
000000c0: 5cc1 433f b429 ce3e 420b 023f 154e 77bc
000000d0: 1d0c 8c3d fc18 073d 8dbd 1a3f 9e56 57bf
000000e0: 5d41 f03d 765b c4bd 62f9 1b3e 85f0 a13e
000000f0: 8d47 cf3d 4101 9e3e e49e 43bf ea7a 913e
00000100: 8ff7 99be a581 8c3e 811d 77bf d3ab 543f
00000110: 30e1 ca3e d236 e43e eb08 163f 1694 2c3f
00000120: 5e70 993e 7e69 c03e 3422 323e 401a aa3d
00000130: 5d92 1e3f 2e93 c93e cf02 dd3b 4e45 5ebf
00000140: 41d7 343e 54d4 613f fb35 9abc 8beb a43d
00000150: 5293 493f 2ff2 183f 9632 873f 6196 1e3f
00000160: 1469 7a3e 3360 0b3f 3667 513f 5fbb ae3e
00000170: e09e 663e 4b47 a2bc f786 39bd f0b8 413f
00000180: 3c26 50bf e1b1 9b3e 5050 0d3f 188e f53e
00000190: 0e8b 8e3f 87f9 c23e ca4f af3d cce6 5b3f
000001a0: f6d2 d23e 4b53 c23e dd0d 163e fd34 b2be
000001b0: 3857 003f 845d f73e 0e50 dbbd d03b 483e
000001c0: b18b 2d3f ddb2 1e3f 485a a83e 9340 ebbd
000001d0: 601f ec3e 2434 ecbd d669 ed3e 5045 7dbf
000001e0: bdc2 083d f140 b3bd 3bc9 8c3e f93a da3e
000001f0: 416c 2e3d 9021 9e3e 0d76 aebf 6e7c 8a3d
00000200: f17e 85be 1956 433e 93a0 18bf e700 073f
00000210: 18bd 0e3f a84c 963e 92a0 023f 56c4 2c3f
00000220: 1d4f 143f 8b21 f23d 7a04 85bd 9bf9 a83e
00000230: ff9f 0f3f 696b 073f fcee 683d 217a 01bf
00000240: d471 693e e293 ee3e d241 2abf b9cf 0dbe
00000250: ca41 2e3f 1976 213f 181a 703f 3ded 9b3e
00000260: 567f 743e d352 b43e f4c2 2d3f 79f4 763e
00000270: 42f8 e93e 0540 dcbe 5633 dabb ec5c 383f
00000280: 8d26 ffbe 4eb3 2a3e d6c3 2a3f 1189 333e
00000290: 5e7a fb3e 1396 b83e ccf7 ca3d ea7f 0c3f
000002a0: cf3f 963e de93 dd3e 0b5e 1d3e ae71 8abf
000002b0: aa35 173f d6ad 2a3e 2438 80be e36e a53e
000002c0: 6c87 843f c095 2d3f 6aa4 0c3f 793e cb3d
000002d0: e15f 1b3e cabc 2e3e 0964 8e3e 38d9 9bbf
000002e0: 84d2 213e 9de0 383d 25ca 92bd 7132 ce3e
000002f0: 86bc 3d3e 2482 363d 728d 7fbf 8c5c 373e
00000300: 5e82 a5be 80ee 5a3e 0f62 10bf 9c9c 823e
00000310: 00f6 0d3f a231 c53e 8fb1 003f 57d2 0c3f
00000320: 222e e73e 0cd0 19bc 5138 f03c feb2 6d3e
00000330: 2eb1 1c3f 22a7 c03e e9be a53d 5cc4 41bf
00000340: 9ff0 743e 42ad 293f b455 61bf 4c76 f4bd
00000350: 413e 0a3f 6d1f 023f 3e85 0a3f 4bbe bd3e
00000360: b0bf 6b3e 03f2 a23e a7b8 df3e 54b8 343e
00000370: 2067 de3e a9f2 20bf 88b6 b03e 9edc 643e
00000380: e25d 9fbe 2963 ccbe ea1d 373f 012f 973d
00000390: 7f40 0b3f 44c0 db3e 0690 fe3d 2867 a73e
000003a0: effd 6e3e 1209 d03e a525 a8bd f58e 75bf
000003b0: db30 083e 7f47 4dbd b322 40be 8791 ba3e
000003c0: 295f 323f b47e 273f 75bf e23e 3345 17bd
000003d0: cc88 e03e 9128 c73c 43e2 043f f790 99bf
000003e0: bc2c 153e c7be 723e c862 463e 92fb 973e
000003f0: e1a5 5b3d c15d ef3d 24a8 93bf b70f b43d
-0.28204948 -0.007635601 -0.7435784 0.96714425 0.38200718 0.15708902 0.5262904 0.6452033
0.60022444 0.3685376 -0.048241932 0.30556127 0.5336029 0.5602926 0.009777495 -0.7502327
-0.0020205616 0.84625524 -0.036907922 -0.0038358844 0.83066267 0.64195305 1.1300014 0.52544916
0.021187717 0.05986064 0.86400974 0.18165189 0.20794107 -0.34761488 0.08881946 0.74074185
-0.7582474 0.20164756 0.4727093 0.22719595 0.89043033 0.35210395 0.04433936 1.2351855
0.2677596 0.16582814 0.3792738 -0.5342753 0.5470217 0.21478185 -0.28105122 0.1738286
0.7646692 0.40266192 0.5079843 -0.0150943 0.06838248 0.03298281 0.6044548 -0.8411654
0.11731217 -0.09587757 0.1523185 0.31628814 0.10121069 0.30860332 -0.7641432 0.28414088
-0.30071685 0.2744266 -0.96529394 0.8307468 0.3962493 0.44573075 0.5860736 0.6741346
0.29968542 0.37580484 0.1739586 0.08305788 0.6194208 0.39370102 0.0067447196 -0.868245
0.17660238 0.8821461 -0.018824568 0.08052739 0.7874042 0.5974454 1.0562313 0.6194821
0.24454147 0.54443663 0.8179811 0.34127328 0.22521544 -0.019809386 -0.045294728 0.7567282
-0.8130834 0.30409148 0.5520067 0.4795997 1.1136186 0.38081 0.085601404 0.85899043
0.41176575 0.37954172 0.14653726 -0.34806052 0.50133085 0.48313534 -0.107086286 0.19554067
0.6779128 0.61991674 0.3288138 -0.11486926 0.46117687 -0.115333825 0.4636981 -0.9893389
0.033388842 -0.08752621 0.27497277 0.42623118 0.042583708 0.3088498 -1.3629776 0.06762014
-0.2607341 0.19075812 -0.59620017 0.5273575 0.55757284 0.2935536 0.5102626 0.67487085
0.5793322 0.11822804 -0.064949945 0.33002934 0.5610351 0.5289827 0.05686854 -0.5057698
0.22797328 0.465972 -0.66506684 -0.13848771 0.68069136 0.6307083 0.93789816 0.30454436
0.238767 0.3521944 0.678756 0.24116696 0.45697218 -0.43017593 -0.0066589518 0.7201679
-0.498341 0.16669962 0.6670507 0.17532755 0.49116796 0.36051998 0.09910545 0.5488268
0.29345557 0.43276876 0.15367906 -1.0815942 0.5906626 0.16667876 -0.25042832 0.32311162
1.0353827 0.67806625 0.54938376 0.09924025 0.15173294 0.17064205 0.27810696 -1.2175665
0.15802962 0.045136083 -0.07167462 0.4027286 0.18528947 0.044557706 -0.99825203 0.17906398
-0.32326025 0.21380043 -0.56399626 0.25510108 0.5545349 0.3851443 0.5027093 0.55008453
0.45152384 -0.009387981 0.029323729 0.23212811 0.61207855 0.37627512 0.08093054 -0.75690246
0.23919915 0.66279995 -0.880214 -0.11936626 0.5400124 0.508292 0.5410956 0.37059245
0.23022342 0.31825265 0.43695566 0.1764844 0.43438053 -0.6287027 0.3451426 0.22349784
-0.31126314 -0.39919403 0.7153002 0.07382012 0.5439529 0.42920125 0.12429814 0.3269589
0.23339055 0.4063192 -0.08210305 -0.9592126 0.13299887 -0.050117012 -0.18763237 0.36439154
0.6967645 0.6542771 0.44286695 -0.036931228 0.43854368 0.024311336 0.5190775 -1.1997365
0.14567846 0.23705588 0.1937362 0.2968412 0.05362499 0.11687804 -1.1535687 0.0879206

fc2.bias f4 [64]
00000000: aa6d dfbc db3a b6be edf2 3abe c8e2 173e
00000010: c3ae 11bc 81d4 b43c f622 a03d a46b 9f3d
00000020: c237 143e 74be 5abd f86d 6cbd 25e8 bebd
00000030: a6f0 00bb 7e93 bebd f77e 2c3e 5e16 e33e
00000040: d4f6 2a3f fad4 5cbd d9de 25be 8290 82bd
00000050: 331e aebc e9a8 2d3f 8697 b23e 8d02 01be
00000060: cf7c e6bd 4e32 3e3e be01 efbd 755b 31be
00000070: e8d3 d6bd e9bf 48bd 1376 4c3e 50b7 d43e
00000080: 1b2e 443c d9ae 243e 19d0 403d d336 ecbd
00000090: 0f5d a33e 8b36 113d 1bce 1fbe eb71 233f
000000a0: db12 cdbd c668 18be abf8 943c b6c1 a03e
000000b0: 758e 3dbd 84c3 983d 89b1 e8bd 3a3f 82bd
000000c0: 8e14 27bb 73d0 77be 765e e7bc 256f 72be
000000d0: 1ebe 823f e568 2c3d 2347 0ebd bad1 f0be
000000e0: 1ae1 ed3c cc20 bbbd b2c9 f8be a04d 3abd
000000f0: a49e 3abe ff22 92bb e552 aa3d 41bd 92bc
-0.027273972 -0.35591778 -0.18256731 0.14832604 -0.008891764 0.022073986 0.07819168 0.07784203
0.14474395 -0.053404287 -0.057722062 -0.09321622 -0.0019674688 -0.09305476 0.16845308 0.44353002
0.6678288 -0.053914048 -0.16198291 -0.06375219 -0.021254634 0.6783586 0.34881228 -0.1259863
-0.11254274 0.18573877 -0.11670254 -0.17320044 -0.10489637 -0.049011145 0.19966917 0.41546106
0.011973883 0.16082324 0.047073457 -0.115338944 0.31906936 0.035452407 -0.15605967 0.638457
-0.10013362 -0.14883718 0.01818498 0.3139779 -0.046278436 0.07459167 -0.11361987 -0.06359716
-0.002549443 -0.24200611 -0.028243285 -0.23675211 1.0214269 0.042092223 -0.03473581 -0.4703501
0.029038 -0.09137115 -0.4859138 -0.045484185 -0.18224579 -0.0044597383 0.08316592 -0.017912509

fc3.weight f4 [4, 64]
00000000: 3413 31bf 4c9a 16bf 6207 0abf 3173 38bf
00000010: acb2 22bf 48ff 60bf adcc 3ebe 12a1 43bf
00000020: ed90 833c db06 9f3d c897 2fbf e931 4fbf
00000030: 0b52 21bf ee25 3bbf 0b84 12bd fc39 db3f
00000040: 24ef 2f3f 43a2 97bf 164f c4be d63d a4be
00000050: 1da8 2abf bc34 553f a5d5 a03f f58f 54bf
00000060: 07e4 d6be 335e 193f 0f65 b63d 0508 67bf
00000070: b18c fcbe 3e18 43bf 90a4 d73e 4a8d ba3f
00000080: bc21 2ebf 6548 93bd 1265 2dbf 6840 dcbd
00000090: 45cd c83b a236 18bf 9b4c d639 75fc 953f
000000a0: c11a dabe 6759 58be ecbe 3abf 28e9 2e40
000000b0: e1c6 79bf 79a3 2bbd e809 7d3d f8b6 2abf
000000c0: f9c6 44bf 6f7f d53f 4265 97be 906f f8be
000000d0: d9bf bf3f d3f2 7bbf 3620 dc3c b73b ef3f
000000e0: 9ead 4abf c493 b4be 9c8c 46bf eca8 21bf
000000f0: bb4a 25bf d8e0 00bf ae87 e93e 0e61 06bf
00000100: 27dc d7be c0a2 5abf b980 1bbf 3e7a 2bbf
00000110: d605 20bf 72ee 2fbf 47e0 efbc f763 4abf
00000120: 2dbf 113f 549d cf3e cad4 2dbf 9832 82bf
00000130: d202 02bf 5e10 11bf 1055 303e f3ec d13f
00000140: 0e66 0e3f f613 f5be 6511 0fbf d5e7 fcbe
00000150: 0c06 d7be d8c0 683f 2914 393f cdfb 4abf
00000160: 2335 1ebf ac1e 2c3f 30c5 573d f3d2 02bf
00000170: 2d44 edbe ba64 1fbf 6b2d 9bbe 6515 9e3f
00000180: 6a45 30bf 9dc8 dbbe 662b 20bf 6f70 f33d
00000190: 807e e9be 61e0 52bf 26ee 603d a1a8 a23f
000001a0: 67e4 4ebf 3f94 43bf 82a0 86bf fc16 0c40
000001b0: e82d 56bf ce5d d93c ccfa d03d 96ea 47bf
000001c0: a895 28bf 7b13 2140 fc52 ccbe 5f15 e9be
000001d0: 5501 ed3f 4cb6 1abf a53f a6bc 10ef 0540
000001e0: 4af0 27bf 483d c0be 0698 a9be 48a5 2fbf
000001f0: 828e 8abf 498f e4be 542f 183d 1985 18bf
00000200: 4575 7abf 37f7 7ebf 7864 3dbf d73e cfbe
00000210: 4536 3e3d 5c11 ecbe 0538 813f 0ddf b2be
00000220: 7e6f 813f 545a 8abf 0b7a a7be 472a febe
00000230: 295a 3dbf 4071 35bf 3752 68bf af97 b43f
00000240: 37bd 033f 81ac 8dbf 7279 59bf c617 55bf
00000250: 60d6 b4bd 3a36 b73f 8d1b 77bf 9b53 53bf
00000260: 7b88 33bf 80c8 d83f cc01 c1bd 96f7 61bf
00000270: 227d 51bf 5d85 95be 1341 2f3f ba8e d83f
00000280: b9c6 dfbe 0407 2abf 2f53 dcbe 9032 4fbd
00000290: 9240 653f a7ce 11bf c46f 933c 92df af3f
000002a0: c860 35bf 1517 55bf cbbb 64bf c4be dc3f
000002b0: cd18 59bf cc96 9bbc 55d4 6fbd 0ba3 5dbf
000002c0: 736a 11bf 46db 81bf ed60 54bf d1fc 8abf
000002d0: dc41 5a3f c4ba 8bbf a254 9b3c df0c c73f
000002e0: b909 6abd 6f06 53bf ffc5 73bf a68f 6fbe
000002f0: 3bb0 e9be 6dcd 32bf ba40 643f 77be 3fbf
00000300: 13bd 1abf 0d46 07bf 5579 f1be e240 61bf
00000310: 4faf d9be 75f6 3cbf d85e a5bf e0a5 6bbf
00000320: 752e 8ebe 59f7 27bc 0880 2cbf 84ca 47bf
00000330: a1c9 46bf 6e85 4abf 5dc6 e7be 30cd 0340
00000340: d37d 823f 4d98 1ebf abf4 ddbe de16 28bf
00000350: ec20 1dbf d9fb b53e f741 be3f 5546 3fbf
00000360: 1ce9 01bf dfc8 143f 5aeb 68bd b099 2abf
00000370: c32f 20bf 34ec 12bf fe0f 2a3f 3ab6 ba3f
00000380: 4bc7 2dbf 75d8 6b3d 23e3 7ebf efb5 75bd
00000390: 22e2 743e 5fb0 21bf d605 97bd 8cb9 7f3f
000003a0: d724 00bf fd8f 1abf cf58 20bf de71 2d40
000003b0: 2c34 8cbf 1243 b3bd c8df 1f3d c6be 22bf
000003c0: 053e 28bf e140 e63f fbcc 55bf 90aa 1ebf
000003d0: ae37 b83f 6cc8 9cbe d209 febd 8459 cd3f
000003e0: 0aa6 90be b624 28bf 72cd 63bf d086 0abf
000003f0: aa2c e3be d8de 53bf 0085 053e 6176 06bf
-0.69169927 -0.5882919 -0.53917515 -0.7205077 -0.6355388 -0.8788953 -0.18632765 -0.7641765
0.016060317 0.077649795 -0.68590975 -0.8093553 -0.6301581 -0.7310475 -0.035770457 1.712707
0.68724275 -1.1846393 -0.38341588 -0.32078427 -0.6666277 0.8328359 1.2565199 -0.8303216
-0.41970846 0.5990936 0.08905994 -0.9024661 -0.4932609 -0.76208866 0.4211774 1.4574368
-0.68020225 -0.071915425 -0.67732346 -0.10754472 0.0061279857 -0.59458363 0.00040874336 1.1717669
-0.42598537 -0.21127854 -0.72947574 2.7329807 -0.9756909 -0.041903947 0.061777025 -0.6668544
-0.7686611 1.6679515 -0.2956944 -0.48522615 1.4980422 -0.98417395 0.026870828 1.8690099
-0.7917117 -0.35268986 -0.775583 -0.6314838 -0.64567155 -0.50343084 0.45611328 -0.52491844
-0.4216015 -0.85404587 -0.6074329 -0.669834 -0.62508905 -0.68723214 -0.029281748 -0.79058784
0.56932336 0.4054972 -0.67902815 -1.017169 -0.50785553 -0.566656 0.17219949 1.6400436
0.55624473 -0.4786679 -0.55885917 -0.49395624 -0.419968 0.90919256 0.72296387 -0.7929047
-0.6179983 0.672343 0.052678287 -0.5110313 -0.46341076 -0.6226307 -0.3030809 1.2350279
-0.6885592 -0.42926493 -0.6256622 0.118866794 -0.45604324 -0.82373625 0.054914616 1.2707711
-0.80817264 -0.7639808 -1.0517733 2.1889029 -0.836638 0.026533987 0.10204086 -0.78092325
-0.6585336 2.516814 -0.39907062 -0.45524117 1.8516032 -0.6043441 -0.02029402 2.0927162
-0.65601027 -0.37546754 -0.33123797 -0.68611574 -1.082474 -0.44640568 0.03715451 -0.5957809
-0.9783519 -0.9959597 -0.7398143 -0.4047763 0.046438474 -0.46106994 1.0095221 -0.349358
1.011215 -1.0808816 -0.327103 -0.4964163 -0.739657 -0.7087593 -0.9075045 1.410879
0.51460594 -1.1068269 -0.84950936 -0.832394 -0.08829951 1.4313424 -0.96526414 -0.82549447
-0.7013013 1.6936188 -0.09424171 -0.8826841 -0.8183156 -0.2920331 0.6845867 1.6918557
-0.437063 -0.66416955 -0.43032214 -0.05058533 0.8955165 -0.5695595 0.01799763 1.3740103
-0.708508 -0.83238345 -0.8934905 1.7245717 -0.8480347 -0.018992804 -0.058552105 -0.8657691
-0.56803054 -1.0145042 -0.82960397 -1.0858403 0.85256743 -1.0916371 0.018961255 1.5550803
-0.05713818 -0.8243169 -0.95223993 -0.23394641 -0.45642266 -0.69844705 0.89161265 -0.749
-0.60444754 -0.52841264 -0.47162881 -0.8798963 -0.42516562 -0.73813564 -1.2919569 -0.9204998
-0.2776982 -0.010251843 -0.6738286 -0.7804339 -0.7765141 -0.7910985 -0.45268527 2.0593987
1.0194649 -0.6195114 -0.4335073 -0.6565989 -0.6137836 0.35543707 1.4863881 -0.74716693
-0.5074632 0.58119005 -0.056865074 -0.6664076 -0.6257288 -0.5739167 0.6643065 1.4586861
-0.6788222 0.057579476 -0.99565333 -0.05998796 0.23914388 -0.63159746 -0.0737416 0.998925
-0.50056213 -0.6037596 -0.6263551 2.710075 -1.0953422 -0.08753027 0.039031774 -0.6357235
-0.65719634 1.798855 -0.835159 -0.6197901 1.4391992 -0.3062166 -0.12404217 1.6042943
-0.28251678 -0.65681016 -0.8898536 -0.5411196 -0.44370013 -0.8276191 0.13039017 -0.5252438

fc3.bias f4 [4]
00000000: 3628 8e3e 389d fe3e 97c0 203f c0b0 98be
0.27765054 0.49729323 0.6279387 -0.2982235
